73.2s 1 BirdClassificationModel(
73.2s 2 (features): Sequential(
73.2s 3 (0): Conv2d(3, 128, kernel_size=(3, 3), stride=(2, 2), padding=(1, 1))
73.2s 4 (1): BatchNorm2d(128, eps=1e-05, momentum=0.1, affine=True, track_running_stats=True)
73.2s 5 (2): ReLU(inplace=True)
73.2s 6 (3): SEBlock(
73.2s 7 (fc1): Linear(in_features=128, out_features=8, bias=False)
73.2s 8 (fc2): Linear(in_features=8, out_features=128, bias=False)
73.2s 9 )
73.2s 10 (4): MaxPool2d(kernel_size=2, stride=2, padding=0, dilation=1, ceil_mode=False)
73.2s 11 (5): Conv2d(128, 256, kernel_size=(3, 3), stride=(1, 1), padding=(1, 1), groups=128)
73.2s 12 (6): Conv2d(256, 256, kernel_size=(1, 1), stride=(1, 1))
73.2s 13 (7): BatchNorm2d(256, eps=1e-05, momentum=0.1, affine=True, track_running_stats=True)
73.2s 14 (8): ReLU(inplace=True)
73.2s 15 (9): SEBlock(
73.2s 16 (fc1): Linear(in_features=256, out_features=16, bias=False)
73.2s 17 (fc2): Linear(in_features=16, out_features=256, bias=False)
73.2s 18 )
73.2s 19 (10): MaxPool2d(kernel_size=2, stride=2, padding=0, dilation=1, ceil_mode=False)
73.2s 20 (11): Conv2d(256, 256, kernel_size=(3, 3), stride=(1, 1), padding=(1, 1), groups=256)
73.2s 21 (12): Conv2d(256, 256, kernel_size=(1, 1), stride=(1, 1))
73.2s 22 (13): BatchNorm2d(256, eps=1e-05, momentum=0.1, affine=True, track_running_stats=True)
73.2s 23 (14): ReLU(inplace=True)
73.2s 24 (15): SEBlock(
73.2s 25 (fc1): Linear(in_features=256, out_features=16, bias=False)
73.2s 26 (fc2): Linear(in_features=16, out_features=256, bias=False)
73.2s 27 )
73.2s 28 (16): MaxPool2d(kernel_size=2, stride=2, padding=0, dilation=1, ceil_mode=False)
73.2s 29 (17): Conv2d(256, 512, kernel_size=(3, 3), stride=(1, 1), padding=(1, 1), groups=256)
73.2s 30 (18): Conv2d(512, 512, kernel_size=(1, 1), stride=(1, 1))
73.2s 31 (19): BatchNorm2d(512, eps=1e-05, momentum=0.1, affine=True, track_running_stats=True)
73.2s 32 (20): ReLU(inplace=True)
73.2s 33 (21): SEBlock(
73.2s 34 (fc1): Linear(in_features=512, out_features=32, bias=False)
73.2s 35 (fc2): Linear(in_features=32, out_features=512, bias=False)
73.2s 36 )
73.2s 37 (22): MaxPool2d(kernel_size=2, stride=2, padding=0, dilation=1, ceil_mode=False)
73.2s 38 (23): Conv2d(512, 512, kernel_size=(3, 3), stride=(1, 1), padding=(1, 1), groups=512)
73.2s 39 (24): Conv2d(512, 512, kernel_size=(1, 1), stride=(1, 1))
73.2s 40 (25): BatchNorm2d(512, eps=1e-05, momentum=0.1, affine=True, track_running_stats=True)
73.2s 41 (26): ReLU(inplace=True)
73.2s 42 (27): SEBlock(
73.2s 43 (fc1): Linear(in_features=512, out_features=32, bias=False)
73.2s 44 (fc2): Linear(in_features=32, out_features=512, bias=False)
73.2s 45 )
73.2s 46 (28): MaxPool2d(kernel_size=2, stride=2, padding=0, dilation=1, ceil_mode=False)
73.2s 47 )
73.2s 48 (avgpool): AdaptiveAvgPool2d(output_size=(1, 1))
73.2s 49 (classifier): Sequential(
73.2s 50 (0): Dropout(p=0.3, inplace=False)
73.2s 51 (1): Linear(in_features=512, out_features=512, bias=True)
73.2s 52 (2): BatchNorm1d(512, eps=1e-05, momentum=0.1, affine=True, track_running_stats=True)
73.2s 53 (3): ReLU(inplace=True)
73.2s 54 (4): Dropout(p=0.3, inplace=False)
73.2s 55 (5): Linear(in_features=512, out_features=1024, bias=True)
73.2s 56 (6): BatchNorm1d(1024, eps=1e-05, momentum=0.1, affine=True, track_running_stats=True)
73.2s 57 (7): ReLU(inplace=True)
73.2s 58 (8): Linear(in_features=1024, out_features=25, bias=True)
73.2s 59 )
73.2s 60 )
73.2s 61 The model has 1,579,801 trainable parameters
73.3s 62 Epoch 0/39
73.3s 63 ----------
337.4s 64 train Loss: 2.1531 Acc: 0.3562
365.4s 65 val Loss: 1.5953 Acc: 0.5181
365.4s 66 
365.4s 67 Epoch 1/39
365.4s 68 ----------
627.0s 69 train Loss: 1.2920 Acc: 0.6065
647.5s 70 val Loss: 1.1315 Acc: 0.6528
647.5s 71 
647.5s 72 Epoch 2/39
…
